trained_model.pth (torch, 2841 bytes, 3 tensors)

fc1.weight f4 [16, 3]
00000000: fee1 8d3a c4eb 163e 60e0 9840 19cb 1aba
00000010: 8480 7c3d 13f6 c240 d731 80ba 172a d63d
00000020: f699 4a40 d8fe c5bd da2c 4abe aa7f d3be
00000030: 68c9 9cb9 185e 3b3d 9191 8fc0 1d38 0bba
00000040: 07eb 863d e418 d040 b3eb 2c3f 4c7e fc3d
00000050: 5407 49bf 60de d33e ad98 963e 5b21 68bf
00000060: 6e7b 913a 5fc5 763d d459 bcc0 c723 3dba
00000070: 9922 7d3d eac4 c340 8981 3dba a772 633d
00000080: e4f5 af40 a3d2 b7be aedd 84be a419 333e
00000090: cd2c 03bf 6109 88be 7107 a4be 7a7a 183a
000000a0: 00b1 ca3d 84ed d0c0 db6a 0e3f e74e 223e
000000b0: e7c9 eabf 5c73 d43e 95b0 cd3e cf6d 8fbf
0.0010824797 0.14738375 4.7773895 -0.00059048977 0.061646 6.0925384 -0.0009780478 0.10457247
3.165647 -0.09667748 -0.19743672 -0.41308337 -0.00029904698 0.04574403 -4.4865193 -0.0005310791
0.06587797 6.5030384 0.6754715 0.12328777 -0.78526807 0.41380596 0.29413357 -0.90675896
0.0011099407 0.06024682 -5.8859653 -0.0007215109 0.061800573 6.1177874 -0.000722908 0.055529263
5.498766 -0.3590289 -0.25950378 0.1749025 -0.51240236 -0.26569656 -0.32036927 0.000581659
0.09897041 -6.5289936 0.556318 0.15850411 -1.8342866 0.41494262 0.40173784 -1.1205386

fc1.bias f4 [16]
00000000: e781 9fc0 413c c3c0 ec38 52c0 d935 a8bd
00000010: 915f 47bd b1af d0c0 f268 423f 3363 883f
00000020: 7505 2cbe baa9 c3c0 51d1 afc0 45af c6be
00000030: f5f0 c2be a516 55c0 3a7a c33f 971f 8cbe
-4.984607 -6.101105 -3.2847242 -0.082133956 -0.048675124 -6.5214467 0.75941384 1.0655273
-0.16798957 -6.1144686 -5.4943013 -0.38805595 -0.3807446 -3.329507 1.5271676 -0.2736785

fc2.weight f4 [1, 16]
00000000: 742e 65c0 59eb 99c0 717b d0be 0899 24bd
00000010: b1ef 2d40 cd48 7fc0 cc15 193f 8057 fe3e
00000020: 6ba2 c740 376b 84c0 b899 04c0 8289 6c3e
00000030: 60e3 0dbc 823c b840 7529 773e 466c 1a3f
-3.5809603 -4.809979 -0.40719178 -0.040185004 2.7177546 -3.9888184 0.59798884 0.49676132
6.2385764 -4.1380877 -2.0718822 0.2309933 -0.008660167 5.757386 0.24136908 0.6032146
